…
/"},"executionInfo":{"elapsed":323,"status":"ok","timestamp":1641679757533,"user":{"displayName":"Vidhi Mahavir JAIN","photoUrl":"https://lh3.googleusercontent.com/a/default-user=s64","userId":"16803840799822741216"},"user_tz":-60},"id":"tNHs0jDgsLBQ","outputId":"d6043204-2a12-4e0b-918d-3a8a041eb776"},"outputs":[{"name":"stdout","output_type":"stream","text":["----------------------------------------------------------------\n","        Layer (type)               Output Shape         Param #\n","================================================================\n","            Conv2d-1           [-1, 50, 70, 70]           1,300\n","       BatchNorm2d-2           [-1, 50, 70, 70]             100\n","              ReLU-3           [-1, 50, 70, 70]               0\n","            Conv2d-4          [-1, 513, 70, 70]         231,363\n","       BatchNorm2d-5          [-1, 513, 70, 70]           1,026\n","              ReLU-6          [-1, 513, 70, 70]               0\n","         MaxPool2d-7          [-1, 513, 35, 35]               0\n"," AdaptiveAvgPool2d-8            [-1, 513, 4, 4]               0\n","           Dropout-9            [-1, 513, 4, 4]               0\n","           Linear-10                 [-1, 1000]       8,209,000\n","             ReLU-11                 [-1, 1000]               0\n","           Linear-12                  [-1, 100]         100,100\n","             ReLU-13                  [-1, 100]               0\n","           Linear-14                    [-1, 6]             606\n","             ReLU-15                    [-1, 6]               0\n","================================================================\n","Total params: 8,543,495\n","Trainable params: 8,543,495\n","Non-trainable params: 0\n","----------------------------------------------------------------\n","Input size (MB): 0.02\n","Forward/backward pass size (MB): 68.08\n","Params size (MB): 32.59\n","Estimated Total Size (MB): 100.69\n","----------------------------------
…
